…
allation is deprecated and will be removed soon. Please install 'pyg-lib' for accelerated neighborhood sampling
  warnings.warn(f"Using '{self.__class__.__name__}' without a "
2024-04-20 16:41:09,782 [INFO ] +---------------------------------+----------------------------------------+----------------+----------+
| Layer                           | Input Shape                            | Output Shape   | #Param   |
|---------------------------------+----------------------------------------+----------------+----------|
| PNA                             | [69094, 1], [2, 608712], [608712, 4]   | [608712, 2]    | 28,917   |
| ├─(node_emb)Linear              | [69094, 1]                             | [69094, 20]    | 40       |
| ├─(edge_emb)Linear              | [608712, 4]                            | [608712, 20]   | 100      |
| ├─(convs)ModuleList             | --                                     | --             | 24,320   |
| │    └─(0)PNAConv               | [69094, 20], [2, 608712], [608712, 20] | [69094, 20]    | 12,160   |
| │    └─(1)PNAConv               | [69094, 20], [2, 608712], [608712, 20] | [69094, 20]    | 12,160   |
| ├─(emlps)ModuleList             | --                                     | --             | --       |
| ├─(batch_norms)ModuleList       | --                                     | --             | 80       |
| │    └─(0)BatchNorm             | [69094, 20]                            | [69094, 20]    | 40       |
| │    │    └─(module)BatchNorm1d | [69094, 20]                            | [69094, 20]    | 40       |
| │    └─(1)BatchNorm             | [69094, 20]                            | [69094, 20]    | 40       |
| │    │    └─(module)BatchNorm1d | [69094, 20]                            | [69094, 20]    | 40       |
| ├─(mlp)Sequential               | [608712, 60]                           | [608712, 2]    | 4,377    |
| │    └─(0)Linear                | [608712, 60]                           | [608712, 50]   | 3,050    |
| │    └─(1)ReLU                  | [608712, 50]                           | [608712, 50]   | --       |
| │    └─(2)Dropout               | [608712, 50]                           | [608712, 50]   | --       |
| │    └─(3)Linear                | [608712, 50]                           | [608712, 25]   | 1,275    |
| │    └─(4)ReLU                  | [608712, 25]                           | [608712, 25]   | --       |
| │    └─(5)Dropout               | [608712, 25]                           | [608712, 25]   | --       |
| │    └─(6)Linear                | [608712, 25]                           | [608712, 2]    | 52       |
+---------------------------------+----------------------------------------+----------------+----------+
2024-04-20 17:06:08,679 [INFO ] Train F1: 0.0151
2024-04-20 17:24:54,230 [INFO ] Validation F1: 0.3046
2024-04-20 17:24:54,231 [INFO ] Test F1: 0.3374
2024-04-20 17:48:41,217 [INFO ] Train F1: 0.2878
2024-04-20 18:08:13,235 [INFO ] Validation F1: 0.4210
2024-04-20 18:08:13,235 [INFO ] Test F1: 0.4279
…
